tutorial_7/ffnn_model.pt (torch, 598822 bytes, 6 tensors)

hidden.0.weight f4 [256, 3]
0	0xbf49b429	-0.7879053
1	0x3e0e8a0e	0.13919851
2	0x3e0f761a	0.14009896
3	0x38bc2e60	8.9731766e-05
4	0xb6254dcc	-2.46322e-06
5	0xb8c46a7a	-9.365841e-05
6	0xbf645c84	-0.8920367
7	0xbc7a0c56	-0.01526173
8	0xbc9fa6d2	-0.019488726
9	0xbee22dd4	-0.4417559
10	0x3d869bf7	0.06572717
11	0x3d6b5f51	0.057463948
12	0xb8083714	-3.2476222e-05
13	0x38e201de	0.000107768676
14	0x39a697a1	0.0003177496
15	0xbf4637f5	-0.77429134
16	0x3d832d5a	0.064051345
17	0xbbdb7644	-0.006697448
18	0xb7ac64eb	-2.0550991e-05
19	0xb90e249a	-0.0001355581
20	0x39bf33c3	0.00036468924
21	0x38495ec1	4.801038e-05
22	0x39bbd249	0.00035824094
23	0x38d00a11	9.920088e-05
24	0x37cb24d4	2.4216635e-05
25	0x38c1051b	9.203908e-05
26	0x3995f6bc	0.00028603326
27	0x3851b1e2	4.999515e-05
28	0x38c11741	9.2072885e-05
29	0x39aeedce	0.00033365045
30	0x37d42583	2.5289837e-05
31	0x387acb8d	5.9794216e-05
32	0xb9a19f65	-0.0003082707
33	0xb8b581e0	-8.654944e-05
34	0x395e4fc8	0.0002120129
35	0x398fd08a	0.0002743046
36	0x3f4feb3e	0.81218326
37	0xbb360fa0	-0.002778031
38	0x3be4c56d	0.006981543
39	0xb65d3c68	-3.2966727e-06
40	0xb7bcf7b4	-2.2526692e-05
41	0xb98eb036	-0.00027215638
42	0xbeb8eff6	-0.36120576
43	0xbcd2c525	-0.025728771
44	0xbceb4f1d	-0.028724248
45	0xb8f1a809	-0.000115230745
46	0xb7ad3479	-2.0647642e-05
47	0xba09ee48	-0.0005261642
48	0x3917ce39	0.00014477306
49	0xb964b75a	-0.00021812078
50	0xb9854428	-0.00025418517
51	0xb799329d	-1.826259e-05
52	0xb70a4164	-8.240666e-06
53	0x39c18297	0.00036909126
54	0x3873149d	5.7954912e-05
55	0xb9556b1f	-0.00020353169
56	0x389e9c2a	7.563115e-05
57	0xbe3d4999	-0.18485107
58	0xbc1f1d47	-0.00971157
59	0xbc3cc0a9	-0.011520543
60	0x3efe1a6e	0.4962954
61	0x3cabdb4d	0.020978594
62	0xbd1ca7fb	-0.038246136
63	0xbdebcac0	-0.11513281
64	0xbc0a8aae	-0.008455915
65	0x3c80d3a5	0.01572592
66	0x3f34c684	0.7061541
67	0xbe746a96	-0.23868784
68	0x3ed659c5	0.41865364
69	0x387358f4	5.801856e-05
70	0xb96e63c1	-0.0002273461
71	0xb96cf4d2	-0.00022597917
72	0x386fd241	5.7177855e-05
73	0xb8c2abf3	-9.282669e-05
74	0xb7eb4f8c	-2.8051225e-05
75	0x3ef44e77	0.47716114
76	0x3f20ab92	0.62761796
77	0xbe582dd6	-0.21111235
78	0x38c9b212	9.617595e-05
79	0xba04c5fe	-0.00050649035
80	0xb9326c92	-0.00017015848
81	0x3f7e09a5	0.99233466
82	0xbd35bdf0	-0.04437059
83	0xbd385dd4	-0.045011356
84	0xb90b3616	-0.00013276222
85	0x39fccdf5	0.00048218635
86	0xb9616d7e	-0.00021498461
87	0x3859530b	5.181417e-05
88	0xb9914882	-0.00027710578
89	0x374e28ed	1.2288086e-05
90	0xb7e8fb77	-2.7773653e-05
91	0xb8cbd220	-9.718933e-05
92	0xb89b6efb	-7.411648e-05
93	0x38dab24f	0.000104282626
94	0xb9ce2a2c	-0.00039322802
95	0x39183f96	0.00014519537
96	0xbf21e076	-0.63233125
97	0x3cbe8e47	0.023261202
98	0x3bdcb88e	0.006735868
99	0xb781bdef	-1.5466443e-05
100	0x38f22810	0.000115469215
101	0x37934f02	1.7560556e-05
102	0x38b761f2	8.744364e-05
103	0xb9bd8f62	-0.00036155718
104	0x39e4c7f2	0.0004363652
105	0xb8cb10f5	-9.682953e-05
106	0xb93c750f	-0.00017972685
107	0x37070d5a	8.049736e-06
108	0xbf0d44f4	-0.5518334
109	0xbd8a2e00	-0.06747055
110	0xbd76497c	-0.060128674
111	0xb78a870b	-1.6513766e-05
112	0x38375ec8	4.3718872e-05
113	0x39de0fd6	0.00042354938
114	0xb767ac9b	-1.3808861e-05
115	0xb8337102	-4.2782172e-05
116	0xb8a19bed	-7.706122e-05
117	0x374246d9	1.1579797e-05
118	0xb992be7f	-0.0002798922
119	0xb94170a0	-0.0001844787
120	0x3f056344	0.5210459
121	0xbc43a633	-0.01194148
122	0x3cc82e36	0.024436098
123	0x365fbb13	3.333848e-06
124	0xb8f65456	-0.00011745903
125	0x386f5be2	5.7067613e-05
126	0x371cb16f	9.339637e-06
127	0xb7358e35	-1.0821551e-05
128	0xb9bfd721	-0.00036590642
129	0xb85ec739	-5.3114465e-05
130	0xb94690ac	-0.00018936646
131	0xb98f0769	-0.00027280606
132	0x38c1aa36	9.2346614e-05
133	0xb92433b8	-0.00015659526
134	0xb8bae68d	-8.9121146e-05
135	0xb89cad61	-7.470954e-05
136	0xba1aa516	-0.00058992335
137	0xb8e0d309	-0.00010720461
138	0xb8b661d1	-8.696656e-05
139	0x39f3fb28	0.00046535698
140	0xb91809e2	-0.00014499531
141	0x3f46f66e	0.7771977
142	0xbb0b5566	-0.0021260618
143	0xb907018f	-0.00012875184
144	0x3fe0bac1	1.7556993
145	0x3dda0593	0.106455944
146	0x3dddb850	0.108261704
147	0xbf1bcc4b	-0.608586
148	0x3d1e28ef	0.038613256
149	0x3d4eee09	0.050519977
150	0x38c5f36a	9.4390314e-05
151	0xb969da60	-0.00022301963
152	0xb9a1ab1d	-0.00030835802
153	0xbf932291	-1.1494924
154	0x3ecbe7c9	0.39825276
155	0x3eb34928	0.3501675
156	0x3738db0b	1.1018255e-05
157	0x3892dfe3	7.003525e-05
158	0x39993e3c	0.00029228802
159	0xbf341b92	-0.7035457
160	0xbce206c6	-0.02759112
161	0xbcc03493	-0.02346257
162	0xb8a71a2d	-7.968056e-05
163	0xb928f102	-0.00016111511
164	0xb9b45700	-0.00034397095
165	0xb723515a	-9.734498e-06
166	0x39ed6358	0.0004527818
167	0xb9823126	-0.0002483215
168	0xbf0a0d26	-0.5392631
169	0x3d351a53	0.044214558
170	0x3cb1b64c	0.021693371
171	0xb78c943f	-1.6758333e-05
172	0xb8898215	-6.556899e-05
173	0xb901629b	-0.00012339132
174	0x37c664c2	2.3650358e-05
175	0xb807f00f	-3.241008e-05
176	0x39122eac	0.00013941032
177	0xb6a9a4bf	-5.0557715e-06
178	0x398ff47d	0.00027457243
179	0x39bfd277	0.00036587167
180	0xb88fab09	-6.850629e-05
181	0xb7c1358c	-2.3032328e-05
182	0x395992e7	0.00020749458
183	0x386409d4	5.436859e-05
184	0x398a33d7	0.00026360035
185	0x38c22afe	9.258649e-05
186	0xb718c717	-9.10626e-06
187	0xb8ddc0d6	-0.0001057402
188	0xb99b9d13	-0.00029680933
189	0xb61720b8	-2.2519798e-06
190	0xb97d43d2	-0.00024153225
191	0xb9a66392	-0.00031736173
192	0xbf0c869e	-0.5489291
193	0x3e88e761	0.26739028
194	0xbf1cd3e1	-0.612608
195	0x37ca6427	2.4126914e-05
196	0x39543743	0.00020238482
197	0x39a6c01b	0.00031805117
198	0xbefcf651	-0.49406675
199	0xbc857d91	-0.016295226
200	0xbc9ca0e4	-0.019119687
201	0x37c387e4	2.330909e-05
202	0xb9cf70d3	-0.00039566177
203	0x3797af50	1.8082239e-05
204	0x38e0618d	0.000106993226
205	0x38d9f34c	0.00010392684
206	0x3872fd20	5.7933037e-05
207	0xb85b164d	-5.2234438e-05
208	0x38918368	6.938615e-05
209	0xb956499e	-0.00020436055
210	0xb7038dfb	-7.841266e-06
211	0x39629869	0.00021609817
212	0x3990bea6	0.00027607864
213	0xbf15832f	-0.58403295
214	0x3d5473b7	0.051868167
215	0xbc8ecfd3	-0.017433083
216	0x38308707	4.2087424e-05
217	0x38b02db5	8.4008476e-05
218	0x3869a52e	5.5705365e-05
219	0x3f024ab3	0.5089523
220	0x3d1a42dd	0.037661422
221	0x3c9450d1	0.018104943
222	0xb8439268	-4.6627974e-05
223	0xb872392e	-5.775055e-05
224	0xb993d2a2	-0.0002819496
225	0xb8c06c3c	-9.175434e-05
226	0x39913fac	0.00027703994
227	0xb8e28cc8	-0.00010802742
228	0xb7db2c9f	-2.6127613e-05
229	0xb92e30f1	-0.00016612165
230	0x379f349b	1.8978773e-05
231	0x3f334ae1	0.7003613
232	0xbc90d83b	-0.017681232
233	0x3cee1d51	0.029066714
234	0x3d990577	0.074717455
235	0xbe0619e9	-0.13095821
236	0xbe058a4a	-0.13041034
237	0x3850a4df	4.9744613e-05
238	0xb8c375fc	-9.320301e-05
239	0x399e96ee	0.0003024856
240	0xb8da0a0a	-0.0001039692
241	0x396932c1	0.00022239519
242	0xb8b6f5ec	-8.724243e-05
243	0xb8459f1e	-4.711665e-05
244	0xb8c73cb5	-9.500367e-05
245	0xb80ea67b	-3.4010485e-05
246	0x383b1850	4.4606917e-05
247	0x37cbc6bf	2.4292034e-05
248	0x39ad2d18	0.0003303073
249	0xb718fb09	-9.118355e-06
250	0x3a2e9404	0.0006659629
251	0x386a9b7e	5.593476e-05
252	0x3ef3a628	0.47587705
253	0xbc59a1b0	-0.013283178
254	0x3cb8c3af	0.022554247
255	0xb62f4a8a	-2.612042e-06

hidden.0.bias f4 [256]
0	0x3ed89a2c	0.42305124
1	0x38effb90	0.00011443265
2	0x3efa2155	0.48853555
3	0x3d9c8c80	0.07643986
4	0xb9525079	-0.00020057139
5	0x3e73b959	0.23801173
6	0xb8adf290	-8.2944636e-05
7	0xb84facef	-4.9513703e-05
8	0xb935a147	-0.00017321586
9	0xb8bb3068	-8.925871e-05
10	0x3932a169	0.00017035533
11	0xb9539a9c	-0.00020180125
12	0xbee4c7c8	-0.4468367
13	0x38df4183	0.00010645671
14	0x3e9d5c19	0.30734327
15	0x37eaf525	2.8009128e-05
16	0x39811d8a	0.00024626806
17	0xb91ed2d0	-0.00015146588
18	0x38e1e49d	0.000107714186
19	0x3da74978	0.0816831
20	0xbe9d0c43	-0.30673417
21	0x3d7e1d9c	0.062039956
22	0xbe846507	-0.25858328
23	0x3974044d	0.00023271255
24	0x3890757b	6.8883375e-05
25	0xbf13727f	-0.5759658
26	0x399715e0	0.00028817263
27	0xbdf069b2	-0.1173891
28	0xb949405b	-0.00019192828
29	0x38e95810	0.00011126709
30	0x37feeda7	3.0389825e-05
31	0x39480fbf	0.00019079352
32	0x3f08e5b0	0.53475475
33	0xb8ac8e16	-8.228065e-05
34	0x37b2da98	2.1321044e-05
35	0xb9150fa9	-0.00014215581
36	0x3e482d28	0.19548476
37	0xb9383948	-0.00017568946
38	0x38a3752a	7.794269e-05
39	0x393aaa67	0.00017801822
40	0xbeb3b3cf	-0.3509812
41	0xb6eb37a7	-7.0100245e-06
42	0x3919ddaa	0.00014673793
43	0x38fa1f82	0.00011926798
44	0x396a42b5	0.0002234083
45	0x38afc0dc	8.380573e-05
46	0xb8ea448e	-0.00011170759
47	0xbe9821f5	-0.29713407
48	0xbdfd5dd6	-0.123714134
49	0x3ebf81d2	0.37403733
50	0x397e45cc	0.00024249329
51	0x3d504205	0.05084421
52	0xb8eb7b13	-0.000112285976
53	0x3f0c77c2	0.54870236
54	0x38d9b8f8	0.000103818194
55	0x384a5b62	4.824566e-05
56	0x3ea74211	0.32667592
57	0x383a2bdc	4.4386703e-05
58	0xb8857ad4	-6.364813e-05
59	0xb917a646	-0.00014462424
60	0xb917ddce	-0.00014483111
61	0xb7fd966b	-3.0229994e-05
62	0x3902617a	0.00012434079
63	0x395196a4	0.00019987911
64	0x3f05493b	0.52064866
65	0xb8f7c047	-0.00011813692
66	0x3e8d600e	0.27612346
67	0x38c89879	9.5651434e-05
68	0x3901b9b2	0.00012371576
69	0x38148057	3.5405476e-05
70	0xb92b480a	-0.00016334667
71	0x3ec934ae	0.39298004
72	0xb769f29e	-1.3944371e-05
73	0xbeaf701b	-0.34265217
74	0x38fdcb02	0.00012101793
75	0xb90797fa	-0.00012931219
76	0x3622b97f	2.4247854e-06
77	0xbf089b73	-0.53362197
78	0x3dc5ab6b	0.09651836
79	0xb79c5f49	-1.864102e-05
80	0xb90c7606	-0.00013395408
81	0xb82432af	-3.914785e-05
82	0xb8a0a7c1	-7.660641e-05
83	0xb9278ecf	-0.00015979561
84	0xbe90cb48	-0.2828009
85	0xb9574e64	-0.000205332
86	0xbdded86f	-0.10881125
87	0x379a786a	1.8414303e-05
88	0xb7ee7245	-2.8425022e-05
89	0xb75ae519	-1.30471535e-05
90	0x38946164	7.07533e-05
91	0xb904d9c7	-0.0001266963
92	0x3f31c709	0.6944433
93	0xb98238b0	-0.00024837768
94	0x3877987b	5.9031398e-05
95	0x3954100d	0.00020223875
96	0xb7d584b6	-2.5453377e-05
97	0xbef03dde	-0.469222
98	0x3916f26c	0.00014395424
99	0xb93e1fc5	-0.00018131647
100	0x3f173f8d	0.59081346
101	0x393be278	0.00017918076
102	0x38dff187	0.000106784566
103	0xbec71d0e	-0.38889354
104	0xb958d7ad	-0.0002067971
105	0xbf0ac4a7	-0.5420632
106	0xb7da23a4	-2.6004222e-05
107	0x38f7e2ff	0.00011820159
108	0xb8f7ba4e	-0.0001181258
109	0x3955a751	0.00020375593
110	0xb7bc9b2d	-2.2483606e-05
111	0x390e03ac	0.00013543543
112	0x3e96f487	0.29483435
113	0xbe3e7a5e	-0.18601367
114	0xbdf8ab2e	-0.12142025
115	0x3c48f9c4	0.01226658
116	0x39411ea0	0.00018417323
117	0xbd900068	-0.070313275
118	0xbf298293	-0.66214865
119	0xb62e4cb9	-2.597268e-06
120	0xb8a451e7	-7.835385e-05
121	0x3be37df3	0.0069425046
122	0x352ceaae	6.4416497e-07
123	0x395517ad	0.00020322083
124	0x3934840d	0.0001721533
125	0x383bdd6d	4.4790493e-05
126	0xbe72353a	-0.23653117
127	0xbe00a7e4	-0.12564045
128	0x3900c4ff	0.00012280418
129	0xbecf81ad	-0.40528622
130	0xbee5afcf	-0.44860694
131	0xbd8c1139	-0.068392225
132	0x3dd4fd67	0.10399895
133	0xb97def01	-0.00024216996
134	0x3e4e39d3	0.20139246
135	0x39325530	0.00017007138
136	0xb913500f	-0.00014048837
137	0x380b0da6	3.3152894e-05
138	0x3e995e8d	0.2995495
139	0x3dd068bb	0.10176226
140	0xbf0d9ac8	-0.553143
141	0x3ea4ed75	0.32212415
142	0x39462ce5	0.00018899476
143	0x3f334528	0.700274
144	0xb8cf6665	-9.889602e-05
145	0x3f24710b	0.6423499
146	0xb8ad6242	-8.267585e-05
147	0xbee9e89b	-0.45685276
148	0xb83caa51	-4.4981312e-05
149	0x3e589fea	0.21154752
150	0xb8acabee	-8.2336235e-05
151	0xb912e3f6	-0.00014008567
152	0xbdfe41a3	-0.12414863
153	0x3903187c	0.00012502255
154	0xb87380f8	-5.8055826e-05
155	0x3ef27095	0.47351518
156	0x39000d8f	0.00012212082
157	0x38b55d47	8.648127e-05
158	0xb8c981e6	-9.608622e-05
159	0xb8b3ee9c	-8.5798296e-05
160	0xb991cfac	-0.00027811283
161	0xbeb9fcd7	-0.36325714
162	0x3e8dd23c	0.2769946
163	0xbe2b8602	-0.16750339
164	0x36114020	2.164401e-06
165	0x38865aa7	6.406503e-05
166	0xb8f30372	-0.00011587785
167	0xb7f03bcc	-2.8638075e-05
168	0xbe419c97	-0.1890739
169	0xb9114258	-0.00013852993
170	0x396b5971	0.00022444666
171	0xb84d7a9b	-4.8989994e-05
172	0xb86d1680	-5.6526158e-05
173	0xbdf5b355	-0.119970955
174	0xb987abea	-0.00025877293
175	0x391cc16e	0.00014949378
176	0x3ddd7032	0.10812415
177	0xb8f7a1b8	-0.00011808
178	0xbe527103	-0.20550923
179	0xbe6d0a95	-0.23148568
180	0xbe783f12	-0.2424281
181	0x396d591e	0.0002263528
182	0x398e4fee	0.00027143903
183	0xbe8484bc	-0.25882518
184	0xb7d96c8b	-2.591896e-05
185	0xb9042122	-0.00012600844
186	0x3f0b9135	0.54518443
187	0xbf0b026c	-0.5430057
188	0x3e4a3633	0.19747238
189	0xbe71b1f8	-0.23603046
190	0x391c497b	0.00014904693
191	0x3f1484be	0.5801505
192	0xbe1fc180	-0.15601158
193	0x3defb249	0.11703927
194	0x392a42d7	0.00016237363
195	0xb76c31c9	-1.4078288e-05
196	0x395db59e	0.0002114386
197	0x38a66213	7.9337646e-05
198	0x3e81ca9d	0.25349894
199	0x3956e870	0.0002049522
200	0xbeabcb28	-0.33553433
201	0x3f08fa3e	0.5350684
202	0x3863c87e	5.430774e-05
203	0xb902db21	-0.00012479398
204	0xbd2cf168	-0.04222241
205	0x3ebf1f85	0.37328735
206	0xb8bf61f4	-9.125835e-05
207	0x38a7549e	7.978942e-05
208	0x38ad1870	8.253835e-05
209	0x3854fc5a	5.077976e-05
210	0x3d309296	0.043108545
211	0xb8fc73be	-0.00012037855
212	0x38550aa5	5.079307e-05
213	0xb6c51711	-5.873743e-06
214	0x3f4ea070	0.8071356
215	0x3e484764	0.19558483
216	0xb8b961f7	-8.839735e-05
217	0x3934b3a9	0.00017233066
218	0xbf28b447	-0.6590008
219	0xb926fd37	-0.00015925324
220	0xb6eba9d2	-7.0233154e-06
221	0xbe8c050f	-0.2734761
222	0xbe5f4978	-0.2180537
223	0x3e62b8d9	0.22140826
224	0x38d84967	0.00010313355
225	0x392f7bde	0.00016735445
226	0xb7ab70f9	-2.0437396e-05
227	0x3f076dd0	0.52901936
228	0x38319873	4.2342068e-05
229	0xbee7109d	-0.45129862
230	0x38ea90b5	0.00011184943
231	0x3e659e7f	0.22423743
232	0x3f251d63	0.64497966
233	0xbe5767c0	-0.21035671
234	0x3b3f5929	0.002919743
235	0xb816c642	-3.594743e-05
236	0x39b686df	0.00034814232
237	0xbe1f59ca	-0.15561596
238	0xbe56c619	-0.20974006
239	0xb96d5179	-0.00022632432
240	0x3e92de3d	0.2868518
241	0x3f1a386e	0.60242355
242	0xbe5c9e5a	-0.21544781
243	0xb939ddaf	-0.00017725558
244	0xbe5391fd	-0.20661159
245	0x39186d49	0.00014536562
246	0x3d5cab88	0.053874522
247	0x3eb6ed72	0.3572803
248	0xb842db6a	-4.645755e-05
249	0xbe4777ca	-0.1947929
250	0xbec6bc21	-0.38815406
251	0xbd56ad89	-0.05241159
252	0xbd92f54d	-0.07175694
253	0xb959e483	-0.0002077986
254	0x38b7ea82	8.7698005e-05
255	0xba8ef288	-0.001090602

hidden.1.weight f4 [512, 256]
0	0x3b4cfee9	0.0031279868
1	0xbc08e44b	-0.008355211
2	0xbc021a6d	-0.007940871
3	0x3cb2e55c	0.021837883
4	0x3bd0d30f	0.0063728164
5	0x3d290394	0.041263178
6	0xbb955705	-0.0045574927
7	0xbb34806c	-0.0027542366
8	0x3bc1e126	0.0059167324
9	0xbb67a235	-0.0035344486
10	0xba09f625	-0.00052628136
11	0xbaa31d95	-0.0012444729
12	0xbc186b9b	-0.009302999
13	0xbc02b26f	-0.007977112
14	0x3c41ad1d	0.011821059
15	0x3b223d47	0.0024755762
16	0x3aced908	0.0015781233
17	0xb9927c82	-0.00027940056
18	0xbbcd0185	-0.0062562847
19	0xbc2c8a41	-0.010531009
20	0x3c27a840	0.010232985
21	0xbd0b0e34	-0.033949092
22	0xbc09d8d5	-0.008413513
23	0xbc1c09a4	-0.009523783
24	0xbb8095ee	-0.003924123
25	0x38c596a1	9.421749e-05
26	0x39b4574a	0.0003439731
27	0xbcaf8ad9	-0.021428512
28	0xbbae87c2	-0.005326242
29	0x3b89da7e	0.0042069545
30	0xbb3b937e	-0.0028621848
31	0xbc2adb95	-0.010428329
32	0x3d3e7855	0.046501476
33	0xbc0747c4	-0.008256856
34	0x3b5cd531	0.0033696408
35	0x39f472dd	0.00046624886
36	0xbc589de6	-0.01322124
37	0xbb8da350	-0.004322447
38	0xb958e8de	-0.00020686115
39	0x3aad3ac1	0.0013216363
40	0xbd29cce9	-0.041455183
41	0xbb389146	-0.0028162762
42	0xbc74cafb	-0.014940972
43	0xbab79362	-0.0014005715
44	0xb9c5bfe5	-0.0003771774
45	0x3b3d3745	0.0028872055
46	0xbb7e2c05	-0.0038783562
47	0x3aa5df80	0.0012655109
48	0xbcdef9a9	-0.027218657
49	0xbd67f3fb	-0.056629162
50	0xbb924d46	-0.004464778
51	0xbbc35650	-0.005961217
52	0xbb26ab62	-0.0025431742
53	0xbc010366	-0.007874345
54	0x3c3ea2f5	0.011635532
55	0xbc35b836	-0.011091283
56	0x3d12cfd0	0.035842717
57	0x3b854eb3	0.0040682196
58	0x3c3ab55d	0.011395779
59	0xbc266d46	-0.010157889
60	0x3b88c455	0.004173795
61	0xbbe406f5	-0.006958837
62	0xbafe6ed9	-0.0019411697
63	0x3c146fe2	0.009059878
64	0x3a274c95	0.0006381956
65	0x3b3fce4b	0.0029267247
66	0x3cf4e896	0.029896062
67	0x3b9b3b83	0.004737319
68	0x3c4317ee	0.011907561
69	0xbb20c98c	-0.0024534194
70	0xbb5d1776	-0.0033735908
71	0xbd437982	-0.0477233
72	0xbb928135	-0.004470969
73	0xbd27be45	-0.04095294
74	0xbb900795	-0.004395435
75	0x3b392753	0.0028252199
76	0xbb917f96	-0.0044402583
77	0x3d5ed65e	0.054403655
78	0x3b8c726b	0.0042861006
79	0xbb0d7b7d	-0.0021588497
80	0xbbe5cbef	-0.007012836
81	0x3baaa998	0.0052082054
82	0xba8541c6	-0.0010166697
83	0x3b6eef86	0.0036458685
84	0x3d515f5c	0.051116332
85	0xbc1eadbb	-0.009684975
86	0x3d28c84a	0.041206636
87	0xbb835887	-0.004008356
88	0x3b221600	0.0024732351
89	0xbb5a1f8e	-0.0033282968
90	0x3b0a328a	0.0021087253
91	0x3b929836	0.0044737114
92	0xbc51b51a	-0.012799526
93	0xbbaa470b	-0.0051964573
94	0x3858440e	5.1561794e-05
95	0xbbd0a63b	-0.0063674725
96	0xbc0f3521	-0.008740694
97	0x3d37ee61	0.04490507
98	0x3b2b4669	0.0026134497
99	0x3bc7a4e7	0.006092656
100	0x3d3eb625	0.046560425
101	0xbb8dcc60	-0.004327342
102	0xbb90d2b5	-0.0044196495
103	0xbd72f95b	-0.059319835
104	0xbc07af45	-0.008281534
105	0xbd2bed1e	-0.04197418
106	0x3bcfe325	0.0063442164
107	0xbb486935	-0.0030580286
108	0x3bc212c6	0.005922648
109	0x3abb71dc	0.00143009
110	0xb99b8736	-0.00029664644
111	0x3b368acd	0.0027853728
112	0x3d20c659	0.03925166
113	0xbc618aa5	-0.013765966
114	0xbbc7bdaa	-0.0060956078
115	0xbc3d25f3	-0.011544692
116	0xbbb3c2f9	-0.005485889
117	0xbbf52bd1	-0.00748203
118	0xbcfeeb80	-0.031118155
119	0xbbc9bdb8	-0.0061566494
120	0x3b42b55a	0.0029710145
121	0xbd0a3aec	-0.0337476
122	0xbb2e5659	-0.002660176
123	0xbb9aeb5e	-0.004727765
124	0x3a934df1	0.0011238438
125	0xbc2d6e4b	-0.010585378
126	0x3b212421	0.0024588185
127	0xbd361c2e	-0.044460468
128	0x3baded6c	0.005307844
129	0x3cdc2862	0.026874725
130	0x3cfb6c77	0.030691369
131	0x3db52d8f	0.0884658
132	0xb7b9dd53	-2.215678e-05
133	0xbb502e13	-0.0031765744
134	0x3d5f34b2	0.054493614
135	0xbb544ea4	-0.0032395506
136	0x398cc960	0.00026852917
137	0xba2d687f	-0.00066149974
138	0x3d0b0f8f	0.033950385
139	0x3c3ec4ab	0.011643569
140	0x3d5f6844	0.054542795
141	0x3b87b19f	0.004141047
142	0x3b88e276	0.004177387
143	0x3c859ef4	0.016311146
144	0x3b1a8597	0.002357816
145	0xbd038fc8	-0.032119542
146	0x3bcbff9a	0.0062255384
147	0x3a5c6de1	0.0008408707
148	0xbb980870	-0.0046396777
149	0x3d6b0093	0.057373594
150	0xbb10caf4	-0.0022093626
151	0x3a7d12a3	0.0009653961
152	0xbd1b6aef	-0.037943777
153	0x3bab459c	0.005226804
154	0x3baec240	0.005333215
155	0xbcda3ca4	-0.026640244
156	0x3a531e6e	0.00080535456
157	0xbbecc102	-0.0072251568
158	0xbb07cf78	-0.0020723026
159	0xb98542d1	-0.0002541752
160	0x39b24848	0.0003400466
161	0xbc5db97f	-0.013532995
162	0x3bb84035	0.0056228884
163	0x3cf40f01	0.02979231
164	0xbc01f850	-0.0079327375
165	0x3c04ac10	0.0080976635
166	0x3b74a9e6	0.0037332713
167	0x3b171d6b	0.0023058306
168	0xba0bd9da	-0.00053348916
169	0x3ad1834e	0.0015984566
170	0xba47516d	-0.0007603381
171	0xbc0a9c44	-0.008460108
172	0xbaf99879	-0.0019042633
173	0xbd2a47ad	-0.04157226
174	0xbc25d29f	-0.010121017
175	0xbb0eed6b	-0.0021808993
176	0xbc9f034d	-0.019410754
177	0xbbc8544f	-0.006113566
178	0xbd0fda60	-0.035120368
179	0x3d215b84	0.039393917
180	0xbc424d71	-0.011859284
181	0x3b4f300e	0.0031614336
182	0xbaf317d3	-0.0018546529
183	0x3d829b42	0.06377269
184	0xbc12962e	-0.008946938
185	0x3c0b3075	0.00849544
186	0x3d42f93e	0.047600977
187	0x3d625a51	0.055261914
188	0xbca59397	-0.020211978
189	0x3a870180	0.001030013
190	0xbb0fc875	-0.002193955
191	0x3b9a851e	0.004715576
192	0xbb44a7ad	-0.003000717
193	0xb9c9a785	-0.0003846252
194	0xbc2524ac	-0.010079544
195	0x3af1dd44	0.0018452783
196	0xba88ca4f	-0.0010436269
197	0xba22c0f8	-0.0006208564
198	0xbd05edfb	-0.03269766
199	0xbb156a4f	-0.002279896
200	0xbcf5a118	-0.029984042
201	0x3d41bafc	0.047297463
202	0xbb6391ba	-0.003472431
203	0xbac35812	-0.0014903566
204	0x3d3f0ae7	0.046641257
205	0x3cd0667d	0.025439495
206	0x3c398f91	0.011325733
207	0x3b6f46c1	0.0036510678
208	0x3a41b83c	0.0007389819
209	0xbbf62728	-0.007511992
210	0x3bfb29f7	0.0076649147
211	0x3bc2318d	0.005926317
212	0xbb89d467	-0.0042062285
213	0x39a98b2b	0.0003233788
214	0x3ca7a07a	0.020462263
215	0xbd2bc115	-0.041932184
216	0x3a92a516	0.0011188115
217	0xbb343fde	-0.0027503888
218	0x3d706195	0.05868681
219	0xb9b2405e	-0.00033998763
220	0xbbd73940	-0.006568104
221	0x3cefd288	0.029275194
222	0xbcadbe69	-0.021208959
223	0x3d8c71ca	0.06857641
224	0x3b01eb79	0.001982419
225	0xbb7e0ade	-0.0038763802
226	0x3b98448a	0.0046468424
227	0xbd2ad555	-0.041707356
228	0xbaa15d75	-0.0012311178
229	0xbc9e762b	-0.019343456
230	0xbb9145fc	-0.0044333916
231	0x3bba1231	0.005678438
232	0xbd13377b	-0.035941582
233	0xbc90d90f	-0.017681627
234	0x3b5a5c3b	0.0033319134
235	0xbbdedbd1	-0.0068011065
236	0xbaa1d5b4	-0.0012347014
237	0x3c6cefbf	0.014461457
238	0xbcd309f4	-0.025761582
239	0x3b42a56d	0.0029700652
240	0xbd591db4	-0.053006843
241	0xbc219867	-0.009862996
242	0xbcfecf6a	-0.031104762
243	0xbb69d6f2	-0.0035681096
244	0xbc7c3c81	-0.015395285
245	0xbbf135b9	-0.0073611406
246	0xbd1b697a	-0.037942387
247	0xbd453dee	-0.048154764
248	0xbb31d2d4	-0.002713372
249	0x3d79a731	0.06095046
250	0x3d885fef	0.06658923
251	0x3c347179	0.011013382
252	0xbca30a3c	-0.019902341
253	0xbb29f60e	-0.0025934014
254	0x3a9dc138	0.0012035733
255	0xbd89d2dc	-0.06729671

hidden.1.bias f4 [512]
0	0x3d407a0e	0.0469914
1	0x3dbab813	0.091171406
2	0x3c738f62	0.014865728
3	0x399ee823	0.00030309064
4	0xbd055b3a	-0.032557704
5	0xb839b3d7	-4.4274926e-05
6	0xbbac3ac7	-0.0052560302
7	0xbcf5ec32	-0.030019853
8	0xbc9ed491	-0.019388469
9	0x3ce5f047	0.028068675
10	0x3a07b027	0.000517609
11	0xbc8ffd6b	-0.017576894
12	0x3cbd5b6d	0.023114884
13	0x3c9bf251	0.019036444
14	0xbd429336	-0.047503673
15	0x3c22d1a7	0.00993768
16	0xbb72e3aa	-0.0037061968
17	0xbc970178	-0.018433318
18	0xbdba05dd	-0.090831496
19	0xbd0c35be	-0.03423094
20	0xbe7c396e	-0.24631283
21	0x3cb80004	0.022460945
22	0xbaee9c81	-0.0018204601
23	0x3d05776d	0.032584596
24	0x3ca89252	0.020577583
25	0xbc6d3932	-0.014478968
26	0xbe10fd1c	-0.14159054
27	0x3ccad312	0.02475885
28	0x3b804a38	0.0039150976
29	0xbdb25b64	-0.08708838
30	0xbcf29c08	-0.029615417
31	0x3d6cfde9	0.057859335
32	0xbed2b0a7	-0.411504
33	0xbd079045	-0.03309657
34	0x3d23b2a9	0.039965305
35	0xbc4760b9	-0.012169057
36	0xbe9e076e	-0.30865043
37	0xbcedec39	-0.029043304
38	0x3c333781	0.010938526
39	0x3d5b9b71	0.053615037
40	0xbd2c876e	-0.042121343
41	0xbb44c497	-0.0030024403
42	0xbc12d4ba	-0.008961851
43	0x3bbb94a2	0.0057245055
44	0xbc21bb16	-0.009871265
45	0xbd7073d4	-0.058704212
46	0x3cf687fe	0.030094143
47	0xbd1a45d2	-0.037664242
48	0xbc53521c	-0.012897994
49	0x3d091ddf	0.033475753
50	0x3e8a5ef2	0.27025563
51	0xbcac1e34	-0.021010496
52	0xbd32ae93	-0.04362352
53	0xbc21b4b8	-0.009869747
54	0xbc57db24	-0.013174806
55	0x3badbcaf	0.005302034
56	0x3d4e9487	0.050434615
57	0x3c7fea1e	0.015619783
58	0x3d291c65	0.041286845
59	0xbd18c246	-0.03729465
60	0x3d0e4c38	0.034740657
61	0x3cac954d	0.021067286
62	0x3cd96d7b	0.026541462
63	0x3c85b0eb	0.016319713
64	0xbd5ffe7b	-0.05468605
65	0xbc8c31d0	-0.017113596
66	0xbaacd2b7	-0.0013185357
67	0x3cfabc14	0.03060726
68	0xbc801b53	-0.01563803
69	0xbd91143f	-0.0708394
70	0x3d662545	0.056187887
71	0x3c9897c4	0.018627055
72	0x3ced9efa	0.02900647
73	0x3d4d57d4	0.050132588
74	0x3c0df9ca	0.008665511
75	0xbceb2c5e	-0.02870768
76	0xbd156d1a	-0.036481
77	0xbd3a8c0d	-0.04554372
78	0x3c2f6548	0.0107053
79	0xbbb00739	-0.0053719548
80	0xbc8e887d	-0.017399067
81	0xbd86d714	-0.06583992
82	0x3caa0aa0	0.02075702
83	0xbced347e	-0.028955694
84	0x3c85f99e	0.016354378
85	0x3c61a447	0.013772077
86	0x3cbd2eb3	0.023093557
87	0x3d529e99	0.05142078
88	0x3c827d0a	0.015928764
89	0x3d3b4a09	0.045724902
90	0x3d7629dc	0.060098514
91	0x3d2d4d99	0.04231033
92	0xbbc2a597	-0.00594015
93	0x3db903b3	0.09033909
94	0xbc95f30e	-0.018304374
95	0x3c97d102	0.01853228
96	0x3c206e09	0.009791859
97	0x3d22cb6a	0.039744772
98	0xbe3e2470	-0.18568587
99	0xbd1c7e14	-0.038206175
100	0x3c89b0d7	0.016807957
101	0xbd4125e3	-0.047155272
102	0xbcca4bc6	-0.024694335
103	0x3da5401a	0.08068867
104	0xbd24747b	-0.040150147
105	0xbd557080	-0.05210924
106	0x3cbb509a	0.022865582
107	0x3cebe5b6	0.028796058
108	0xbcdcc564	-0.026949592
109	0xbe65c2c1	-0.22437574
110	0xbca4687e	-0.020069357
111	0x3cdb7a58	0.026791736
112	0xbd110c1e	-0.035411946
113	0x3ba38575	0.0049902746
114	0xbd7b6b57	-0.061381664
115	0x3c553606	0.0130133685
116	0xbd233c03	-0.039852154
117	0xbd85285e	-0.0650184
118	0xbd2864d4	-0.041111782
119	0x3c452b0c	0.012034189
120	0x3cb31f1e	0.021865424
121	0x3ce3848e	0.027773168
122	0x3b46d577	0.0030339637
123	0xbb1e1a99	-0.002412474
124	0xbd65907c	-0.056045994
125	0xbd5361c1	-0.051606897
126	0x3d2fc37c	0.042911038
127	0xbcfb206d	-0.03065511
128	0xbd6dc431	-0.05804843
129	0xbccda7bb	-0.025104394
130	0x3d05f15b	0.032700878
131	0x3cd49463	0.025949663
132	0x3e383d5e	0.1799216
133	0xbd5513cd	-0.052020837
134	0xbd8d8c7d	-0.06911562
135	0xbd192018	-0.037384123
136	0xbd3c427a	-0.045961834
137	0xbbed779c	-0.0072469246
138	0xbaf6e1b4	-0.0018835575
139	0x3b6e7762	0.0036387076
140	0x3d0a1450	0.033710778
141	0xbcf969d1	-0.030445965
142	0xbd22deb4	-0.039763168
143	0x3d0c4ae3	0.034251105
144	0x3bf4e7ae	0.0074739074
145	0x3d1d30e3	0.0383767
146	0x3e8f5422	0.27993876
147	0xbdb3ba8c	-0.08775815
148	0x3d28a2c0	0.041170835
149	0x3a1fbe76	0.00060937495
150	0xbcb279e0	-0.02178663
151	0xbb3d5a79	-0.0028893037
152	0x3f03dc5a	0.51508105
153	0xbd61c1a5	-0.055116314
154	0xbcfdc5c3	-0.03097809
155	0xbbe9bee5	-0.007133352
156	0xbd0d513e	-0.034501307
157	0x3c85095e	0.016239818
158	0x3e43b146	0.19110593
159	0x3c2795d6	0.010228595
160	0xbcb4a168	-0.02204962
161	0xbd8d892b	-0.06910928
162	0xbcd5da13	-0.026104962
163	0xbd127b70	-0.03576225
164	0x3deae52f	0.114694946
165	0x3bdf0594	0.006806085
166	0x3c86e0b9	0.016464578
167	0xbcc004bd	-0.02343976
168	0x3b30a51a	0.0026953877
169	0xbd820354	-0.06348291
170	0xbc4e09a8	-0.012575544
171	0x3d1601fc	0.036622986
172	0xbc401388	-0.011723407
173	0x3cbd3de8	0.023100808
174	0x3d5223b2	0.051303573
175	0x3c0b1d9e	0.008490948
176	0x3d2b8b25	0.041880745
177	0x3cc056cf	0.023478894
178	0xbe8ca157	-0.27466843
179	0xbce486aa	-0.027896244
180	0xbccf02f3	-0.025269961
181	0xbe608d06	-0.21928796
182	0x3b632e16	0.003466492
183	0x3d4773de	0.048694484
184	0xbd9fb322	-0.07797839
185	0x3c83dee8	0.0160975
186	0xbd7960a4	-0.06088318
187	0xbd54a20e	-0.05191236
188	0xbd6eb119	-0.058274362
189	0xbd478428	-0.04871002
190	0xbcbfa021	-0.023391785
191	0x3d458297	0.048220243
192	0xbe12c96a	-0.14334646
193	0x3b4cf555	0.003127416
194	0x3d133a8a	0.0359445
195	0xbc021ed0	-0.007941917
196	0x3bddf395	0.006773422
197	0x3bf3ad9b	0.007436467
198	0xbced66bf	-0.028979657
199	0x3d47c656	0.048773132
200	0x3cf538fb	0.029934397
201	0x3d0e101b	0.034683328
202	0x3d74d92d	0.059777427
203	0x3c48c805	0.01225472
204	0xbc831780	-0.016002417
205	0x3d2cbec4	0.042174116
206	0x3d15106c	0.036392614
207	0xbc544534	-0.012955952
208	0xbe943768	-0.28948522
209	0x3e0d8e1c	0.13823742
210	0x3d4d60d4	0.05014117
211	0x3d7e1acf	0.062037285
212	0x3c9db069	0.019249158
213	0xbb39a34f	-0.00283261
214	0x3c5a0170	0.013306007
215	0xbd1840f7	-0.03717133
216	0xbc6de28d	-0.014519346
217	0x3cdb595e	0.026776012
218	0x3cbc706b	0.023002824
219	0xbc9bad58	-0.019003555
220	0x3c3d5afd	0.011557338
221	0x3c866ab6	0.016408306
222	0xbcb7efc6	-0.0224532
223	0xbbec5011	-0.007211693
224	0xbc6ba29c	-0.014382031
225	0xb9c621f7	-0.0003779081
226	0x3d275bfa	0.0408592
227	0xbcb2e5f7	-0.021838171
228	0xbc9b27d5	-0.018939892
229	0xbc73c0ff	-0.014877557
230	0xbddd3859	-0.10801763
231	0xbc360de0	-0.0111117065
232	0xbb80da70	-0.00393229
233	0x3c2cb143	0.010540309
234	0x3be44219	0.0069658873
235	0x3c6d8aed	0.0144984545
236	0x3d1ac413	0.037784647
237	0x3c913403	0.017724996
238	0x3d23b62e	0.039968662
239	0xbcabed4d	-0.020987177
240	0x3c3e6dd1	0.011622862
241	0xbc9416a2	-0.018077198
242	0xbd2715da	-0.040792324
243	0xbbf76812	-0.007550248
244	0xbc8b2eb0	-0.016990036
245	0xbd874ca9	-0.06606419
246	0xbd0b2cc7	-0.03397825
247	0x3c37055e	0.011170713
248	0xbce1b78d	-0.027553344
249	0xbcee7f3e	-0.029113408
250	0xbb383eb1	-0.002811354
251	0xbc64c469	-0.013962843
252	0xbd1d9150	-0.03846866
253	0xbc328397	-0.010895631
254	0x3d8b7321	0.068090685
255	0xbd004bda	-0.031322338

hidden.2.weight f4 [32, 512]
0	0xb8e02972	-0.00010688872
1	0xbd916d76	-0.07100956
2	0xb919ad46	-0.00014655766
3	0xb93b0113	-0.0001783411
4	0x396f958d	0.00022848528
5	0xb8afc196	-8.3807085e-05
6	0x39e4e88c	0.0004366081
7	0xb974bba7	-0.00023339559
8	0xbab63f60	-0.0013904385
9	0xb8c167bf	-9.2222814e-05
10	0x389ec607	7.5709126e-05
11	0x3925bef1	0.00015806757
12	0x3b0d47c3	0.0021557666
13	0x3ad44d10	0.0016197283
14	0xb9760547	-0.00023462354
15	0xbad16411	-0.0015975257
16	0xb9e63876	-0.00043911085
17	0xb787b1bd	-1.617602e-05
18	0x3b3a0499	0.0028384088
19	0xb8dc8946	-0.00010515987
20	0xbd587a16	-0.052850805
21	0xb9a19cc1	-0.00030825104
22	0xb9cef88d	-0.00039476567
23	0x398ed909	0.00027246054
24	0xb96e9b12	-0.00022755217
25	0xb9db2fe1	-0.00041806608
26	0x3c19510d	0.009357703
27	0xb916172b	-0.00014313745
28	0x3a17aa77	0.0005785594
29	0xbb89b2af	-0.004202209
30	0xba1a3a2c	-0.0005883302
31	0x39dff293	0.00042714606
32	0xbae4d171	-0.0017457438
33	0x3856b4d8	5.119e-05
34	0xbb4f64c4	-0.0031645754
35	0xb9e397fd	-0.00043410054
36	0x3a31114e	0.0006754593
37	0x3bb8e7e2	0.005642877
38	0xb985963c	-0.0002547967
39	0xba880f3f	-0.001038052
40	0x39d8fe80	0.00041388348
41	0x3a3ebfea	0.0007276522
42	0xb9ee103c	-0.00045406993
43	0x3a8cd595	0.0010744805
44	0x395d9034	0.00021129922
45	0x3a7fef08	0.00097630965
46	0xb9c064a8	-0.00036696089
47	0xbacacf46	-0.0015473149
48	0x3a00c63e	0.0004912353
49	0xb8b2a27e	-8.517968e-05
50	0xbb1c4906	-0.0023847236
51	0xb95bca56	-0.00020960844
52	0x394d996e	0.0001960748
53	0x38bc3cea	8.975885e-05
54	0xb9b82b90	-0.0003512767
55	0xb935e36a	-0.00017346223
56	0x38cec7e1	9.860076e-05
57	0xba1b74c1	-0.00059301784
58	0x3a19569a	0.00058493915
59	0x39f768bd	0.00047189547
60	0xba399adf	-0.00070802675
61	0x38dfee09	0.00010677806
62	0xb9a15b13	-0.0003077617
63	0xb6dda057	-6.6049793e-06
64	0x37de0938	2.6468755e-05
65	0x384833d0	4.773197e-05
66	0xba36e2a4	-0.0006976521
67	0xb892e152	-7.003792e-05
68	0x39941661	0.00028245433
69	0x3a9b0602	0.0011827352
70	0xb78b3f1a	-1.6599475e-05
71	0x39ac339c	0.00032844848
72	0xb9bd06b9	-0.00036053898
73	0x39b0eb76	0.00033744768
74	0x39a0ea4f	0.00030692152
75	0xb7695d13	-1.3909553e-05
76	0x3a0e05ed	0.0005417753
77	0xb9624dc4	-0.0002158201
78	0xba01799a	-0.00049390795
79	0xba8bb362	-0.0010658319
80	0xb97954ed	-0.00023778128
81	0x3d9ad643	0.075603984
82	0x3783b35d	1.569994e-05
83	0x39f4c1e3	0.00046683764
84	0x3891bab5	6.948916e-05
85	0x3a04951d	0.000505762
86	0x3614aa79	2.2152947e-06
87	0xba09184f	-0.00052297575
88	0xb9d08d80	-0.00039778277
89	0xbdaca493	-0.084298275
90	0x37d377da	2.520897e-05
91	0xb8c56422	-9.412343e-05
92	0xba040113	-0.00050355605
93	0x3c878602	0.016543392
94	0x38963078	7.1615854e-05
95	0xb78adcd4	-1.6553713e-05
96	0x35c0c3d1	1.4362105e-06
97	0xba94c42c	-0.0011349968
98	0x3b3e2fef	0.002902027
99	0xb9972105	-0.00028825566
100	0xba9fb8a7	-0.0012185768
101	0xb7fc5ffc	-3.0085437e-05
102	0xb9d350a7	-0.00040305147
103	0xb90ddee1	-0.00013529837
104	0xb67df877	-3.7844563e-06
105	0x39605a0c	0.0002139585
106	0x3a11b9a2	0.00055589725
107	0xb90d20af	-0.00013458983
108	0x39af808f	0.00033474385
109	0x3af88638	0.0018960899
110	0x39e3a10a	0.00043416797
111	0xb8aaac66	-8.1383434e-05
112	0xb99f14c2	-0.0003034231
113	0xba6a3b96	-0.00089352706
114	0x39ac4b8a	0.00032862677
115	0xb890957b	-6.894298e-05
116	0x3a05a8e2	0.0005098713
117	0xbaf8f7a5	-0.0018994702
118	0x3a08d025	0.0005219004
119	0xb9803b93	-0.0002445845
120	0xba04c266	-0.0005064368
121	0xba12fbdc	-0.0005606988
122	0x3a29563c	0.00064596883
123	0x39063db8	0.00012802228
124	0xb80462b8	-3.156319e-05
125	0xb9b15efb	-0.00033830837
126	0x3a1fdb6c	0.0006098065
127	0x39a38973	0.0003119219
128	0xb944941b	-0.0001874719
129	0x3a1d1537	0.0005992236
130	0x3a4ee928	0.00078930194
131	0x373e7ac4	1.1353466e-05
132	0x3a700cb2	0.0009157165
133	0x39e65ea5	0.00043939534
134	0x38f835fa	0.000118356154
135	0xba200967	-0.00061049167
136	0xb87021f4	-5.725208e-05
137	0xb9603b2e	-0.00021384351
138	0x3902eb81	0.00012485498
139	0xb9aacac4	-0.00032576
140	0x3994f388	0.00028410205
141	0x39d3f92a	0.00040430698
142	0x38326743	4.2534677e-05
143	0xba784f71	-0.0009472287
144	0xb9a07404	-0.00030604017
145	0xb9522451	-0.0002004069
146	0xbb80834a	-0.003921901
147	0x39aa36d2	0.0003246577
148	0x386f79fa	5.709564e-05
149	0xb93b8863	-0.00017884518
150	0x36e626ac	6.859036e-06
151	0xb82d68f9	-4.1344178e-05
152	0x3ab8964f	0.0014082881
153	0x38f510f5	0.00011685669
154	0x3a0c0939	0.00053419505
155	0xb9d3dbf6	-0.0004040894
156	0x39a80077	0.00032043803
157	0xba2cbfe0	-0.0006589871
158	0x3a5207f8	0.00080120517
159	0xb929c11b	-0.00016189033
160	0xb94f165a	-0.00019749385
161	0xb93191a9	-0.00016934298
162	0xba2dfa69	-0.000663674
163	0xb852a49f	-5.0221217e-05
164	0xbaf804e8	-0.0018922361
165	0xb9f74c1b	-0.00047168214
166	0x3ab30c82	0.0013660344
167	0x394a5a40	0.00019297842
168	0xba078f73	-0.0005171217
169	0xb96c0ba2	-0.00022511047
170	0xb9520e3e	-0.00020032466
171	0xb883d573	-6.286325e-05
172	0xb84da794	-4.9031878e-05
173	0x3af7ffec	0.0018920875
174	0xb9a2ecaa	-0.00031075376
175	0x39149f21	0.0001417366
176	0xb9f34abc	-0.00046404253
177	0xb9a6205f	-0.00031686106
178	0x3b718cca	0.0036857598
179	0x39a6eef6	0.00031840027
180	0xb8d32605	-0.00010068346
181	0x3b4894c7	0.0030606256
182	0x36d827b4	6.4419237e-06
183	0x3ac61b86	0.0015114404
184	0x3dfae8d1	0.122514375
185	0xb8a00a03	-7.631259e-05
186	0x3a23a17d	0.000624202
187	0x39cb9803	0.00038832435
188	0xbc501518	-0.012700342
189	0xb97e0f0c	-0.00024228933
190	0x39cb256d	0.00038747062
191	0x392ecb68	0.00016669708
192	0x3d11dfd2	0.035613842
193	0x388e40c7	6.7831534e-05
194	0xbb018b5d	-0.0019766905
195	0xb9b0b109	-0.00033701237
196	0x3a3e5d03	0.00072617846
197	0x39d020d9	0.00039697325
198	0xb9cc8424	-0.00039008365
199	0xb871c70c	-5.7644254e-05
200	0x3b0ec16c	0.002178277
201	0x3921fbf6	0.00015448019
202	0xb8e55c69	-0.00010936784
203	0x378bee1c	1.668097e-05
204	0x39d925b1	0.00041417548
205	0x38a76f2c	7.983888e-05
206	0xb8d636cd	-0.000102145226
207	0xb8c7e643	-9.531949e-05
208	0x3af603f9	0.0018769494
209	0xbad5346a	-0.0016266231
210	0xbdd9a664	-0.106274396
211	0xbaac35cd	-0.0013138592
212	0xb98dd739	-0.0002705397
213	0xb9c13603	-0.0003685207
214	0x3910aefd	0.00013798098
215	0xbaa01b99	-0.0012215256
216	0xba2f62f6	-0.00066904665
217	0xb844b7dc	-4.6901274e-05
218	0xba3707e0	-0.00069820695
219	0xb9a2b176	-0.00031031267
220	0x39e15af7	0.00042983118
221	0x3a137aac	0.00056258845
222	0x37bdedfb	2.2641374e-05
223	0x3a7a7a74	0.000955499
224	0x39078cc0	0.00012927037
225	0xba1cf625	-0.0005987606
226	0xb96bee81	-0.00022500196
227	0xb922ed7d	-0.00015537995
228	0x3a9197cb	0.001110786
229	0xb73215a3	-1.06146645e-05
230	0xbc8af731	-0.016963573
231	0x39940ec5	0.00028239764
232	0xba22ca59	-0.0006209962
233	0xb9900a34	-0.00027473422
234	0xb9c89e00	-0.00038264692
235	0x37fd94dc	3.0229268e-05
236	0xba482f97	-0.0007636486
237	0xba01a6b2	-0.0004945799
238	0x39051734	0.00012692512
239	0x38f1fa68	0.00011538417
240	0x3985f36a	0.00025549094
241	0x3ac71516	0.0015188779
242	0x39f14c87	0.0004602412
243	0x396b696a	0.00022450616
244	0xb902c8fe	-0.00012472642
245	0x391a7314	0.00014729454
246	0xb95202bc	-0.0002002818
247	0xb946b690	-0.00018950761
248	0x32d72bcd	2.5049212e-08
249	0x3a1d4546	0.0005999397
250	0xba85c785	-0.0010206556
251	0x39855f17	0.00025438584
252	0xb9a63937	-0.00031704616
253	0x38d4352b	0.00010118851
254	0x38fa6122	0.00011939021
255	0xb813c7e0	-3.523368e-05

hidden.2.bias f4 [32]
0	0x3e0a14b8	0.13484466
1	0xbde6b803	-0.11265566
2	0x3daacaf9	0.08339495
3	0xbd3660ec	-0.044526026
4	0xbb4aa8b4	-0.0030923309
5	0x3d5515d9	0.05202279
6	0xbdc7ab95	-0.097495236
7	0x3e077839	0.13229455
8	0xbe19ac13	-0.15007047
9	0x3e178c17	0.14799534
10	0xbdf83a4e	-0.12120496
11	0x3d93e85d	0.07222054
12	0xbb425a65	-0.002965593
13	0xbda35164	-0.079745084
14	0x3e28ff10	0.16503549
15	0xbe776f00	-0.24163437
16	0x3c63cbd6	0.013903579
17	0xbc951171	-0.018196793
18	0x3ba38b07	0.0049909386
19	0xbb0bde84	-0.0021342346
20	0x3b317b7d	0.0027081661
21	0xbb1cadf3	-0.0023907393
22	0x3b1d2bfc	0.0023982516
23	0xbb3bd610	-0.0028661527
24	0x3b0f1538	0.0021832716
25	0xbb11b2bf	-0.0022231785
26	0x3b22efc9	0.0024862161
27	0xbb6e61ef	-0.003637429
28	0x3bf5d71b	0.007502449
29	0xbc60d1a3	-0.013721856
30	0x3c9f6f23	0.019462174
31	0xbcba179d	-0.022716338
